dehazer.pth (torch, 10808 bytes, 10 tensors)

e_conv1.weight f4 [3, 3, 1, 1]
0	0xbea85977	-0.32880756
1	0x3f1d5ee2	0.61472905
2	0x3ea34d9f	0.31895158
3	0xbeae1424	-0.3399974
4	0x3ef4d515	0.4781882
5	0x3e1acc3c	0.15116972
6	0x03be8c08	1.1199346e-36
7	0x80006d85	-3.9288e-41
8	0x800089c5	-4.9422e-41

e_conv1.bias f4 [3]
0	0x3dc5b837	0.09654277
1	0xbe1ed0a1	-0.15509273
2	0xa732022a	-2.4703635e-15

e_conv2.weight f4 [3, 3, 3, 3]
0	0xa8930b47	-1.632517e-14
1	0xa88b2af3	-1.5450726e-14
2	0xa891f0ac	-1.6202609e-14
3	0xa88c4860	-1.557451e-14
4	0xa884f224	-1.4759956e-14
5	0xa88bb928	-1.5512399e-14
6	0xa88e5001	-1.5799863e-14
7	0xa88735d8	-1.5011362e-14
8	0xa88e3c6e	-1.5791374e-14
9	0x00008f30	5.1366e-41
10	0x00008fd5	5.1597e-41
11	0x00008c26	5.0276e-41
12	0x0000a35b	5.8601e-41
13	0x80008bb9	-5.0123e-41
14	0x00008f11	5.1323e-41
15	0x00008ac3	4.9778e-41
16	0x0000ad75	6.2225e-41
17	0x00008ab7	4.9762e-41
18	0x8000897f	-4.9324e-41
19	0x800089c5	-4.9422e-41
20	0x80008e06	-5.0948e-41
21	0x80008b18	-4.9897e-41
22	0x80008e81	-5.1121e-41
23	0x80008e5e	-5.1072e-41
24	0x80008d37	-5.0658e-41
25	0x80008cd3	-5.0518e-41
26	0x80008c9c	-5.0441e-41
27	0x000089e3	4.9464e-41
28	0x000089ef	4.9481e-41
29	0x00008973	4.9307e-41
30	0x000089bc	4.941e-41
31	0x0000891b	4.9184e-41
32	0x00008942	4.9239e-41
33	0x000088e6	4.911e-41
34	0x0000897b	4.9319e-41
35	0x0000898c	4.9343e-41
36	0x00008a15	4.9534e-41
37	0x000088c0	4.9057e-41
38	0x000088be	4.9054e-41
39	0x00008914	4.9174e-41
40	0x000089b1	4.9394e-41
41	0x000089ca	4.943e-41
42	0x000089f1	4.9484e-41
43	0x000089ff	4.9504e-41
44	0x000089ea	4.9474e-41
45	0x000090cb	5.1942e-41
46	0x00008bf8	5.0211e-41
47	0x000090a5	5.1889e-41
48	0x000090f2	5.1997e-41
49	0x0000ad3f	6.2149e-41
50	0x00009d04	5.6327e-41
51	0x00009126	5.207e-41
52	0x0000a243	5.8209e-41
53	0x80008d3d	-5.0667e-41
54	0x800089aa	-4.9385e-41
55	0x8000890c	-4.9163e-41
56	0x8000898a	-4.934e-41
57	0x80008a13	-4.9532e-41
58	0x800089a1	-4.9372e-41
59	0x80008953	-4.9263e-41
60	0x80008a01	-4.9506e-41
61	0x80008987	-4.9336e-41
62	0x80008910	-4.9169e-41
63	0x800089ff	-4.9504e-41
64	0x800089d6	-4.9446e-41
65	0x8000891f	-4.919e-41
66	0x800088e6	-4.911e-41
67	0x8000899a	-4.9362e-41
68	0x800088d2	-4.9082e-41
69	0x8000894b	-4.9251e-41
70	0x80008a11	-4.9529e-41
71	0x800088e5	-4.9109e-41
72	0x8000925b	-5.2502e-41
73	0x80008a51	-4.9619e-41
74	0x800089f9	-4.9495e-41
75	0x80008e7d	-5.1115e-41
76	0x800089ca	-4.943e-41
77	0x80008c08	-5.0234e-41
78	0x80008ab9	-4.9764e-41
79	0x80009085	-5.1844e-41
80	0x80008b4d	-4.9972e-41

e_conv2.bias f4 [3]
0	0xb68a8f15	-4.1293774e-06
1	0xa1809c98	-8.715067e-19
2	0x8b706f5c	-4.6306096e-32

e_conv3.weight f4 [3, 6, 5, 5]
0	0x9ee9b9eb	-2.4746728e-20
1	0x9edbc056	-2.3267075e-20
2	0x9eed5476	-2.5128283e-20
3	0x9ee4a7c7	-2.420983e-20
4	0x9ee0eba2	-2.3814378e-20
5	0x9edfb1ed	-2.3684632e-20
6	0x9ee9ca30	-2.4753457e-20
7	0x9ee03d03	-2.3742156e-20
8	0x9ed7dba8	-2.2854858e-20
9	0x9eedb55d	-2.5168361e-20
10	0x9ee8a758	-2.4633167e-20
11	0x9ed7cde9	-2.2849173e-20
12	0x9ee16dd8	-2.3868232e-20
13	0x9ee45480	-2.4175387e-20
14	0x9ee5fd0b	-2.4350974e-20
15	0x9ee08784	-2.377297e-20
16	0x9eeaee1b	-2.4874192e-20
17	0x9ee5c92e	-2.4329524e-20
18	0x9edc0b40	-2.3298059e-20
19	0x9ee58a1d	-2.430344e-20
20	0x9ee3e3bf	-2.4128753e-20
21	0x9ee8c73f	-2.4646362e-20
22	0x9ee93548	-2.4691871e-20
23	0x9ee5ff65	-2.4351947e-20
24	0x9ee93c33	-2.4694732e-20
25	0x8d4d2edb	-6.3226902e-31
26	0x8d412e93	-5.952878e-31
27	0x8d49d395	-6.219259e-31
28	0x8d3baba4	-5.783043e-31
29	0x8d3eb9a7	-5.877174e-31
30	0x8d40de7e	-5.9432383e-31
31	0x8d4a8cb6	-6.241543e-31
32	0x8d4632f2	-6.1074784e-31
33	0x8d426b02	-5.990967e-31
34	0x8d37fcc6	-5.6695494e-31
35	0x8d446818	-6.052246e-31
36	0x8d4753cb	-6.142247e-31
37	0x8d45231b	-6.074757e-31
38	0x8d3ce0cc	-5.820256e-31
39	0x8d3c22d5	-5.79739e-31
40	0x8d522b1c	-6.4763137e-31
41	0x8d49e38e	-6.2211816e-31
42	0x8d457dce	-6.0856744e-31
43	0x8d3e66a0	-5.86718e-31
44	0x8d44a61b	-6.0597105e-31
45	0x8d4d7e89	-6.3322813e-31
46	0x8d4dced9	-6.3419486e-31
47	0x8d4bfb04	-6.2856354e-31
48	0x8d47b886	-6.154372e-31
49	0x8d3e33f6	-5.8610816e-31
50	0x80008a9c	-4.9724e-41
51	0x80008923	-4.9195e-41
52	0x0000ae18	6.2453e-41
53	0x800088cb	-4.9072e-41
54	0x800088ee	-4.9121e-41
55	0x80008983	-4.933e-41
56	0x80008a84	-4.969e-41
57	0x000089b6	4.9401e-41
58	0x00009b7d	5.5779e-41
59	0x800089f5	-4.949e-41
60	0x800089b3	-4.9397e-41
61	0x80008912	-4.9172e-41
62	0x0000a345	5.857e-41
63	0x800088ec	-4.9118e-41
64	0x80008984	-4.9331e-41
65	0x00008f0e	5.1318e-41
66	0x0000a8f1	6.0605e-41
67	0x00009a60	5.538e-41
68	0x800089fc	-4.95e-41
69	0x0000ad11	6.2085e-41
70	0x80008939	-4.9226e-41
71	0x80008a9a	-4.9721e-41
72	0x800088bc	-4.9051e-41
73	0x000088fc	4.9141e-41
74	0x800089a9	-4.9383e-41
75	0x800089a6	-4.9379e-41
76	0x00009ede	5.6991e-41
77	0x00009802	5.453e-41
78	0x00009743	5.4262e-41
79	0x8000898e	-4.9345e-41
80	0x00008932	4.9216e-41
81	0x0000ab59	6.1468e-41
82	0x00009249	5.2477e-41
83	0x00009ad3	5.554e-41
84	0x80008aca	-4.9788e-41
85	0x8000951a	-5.3488e-41
86	0x80009565	-5.3593e-41
87	0x80009689	-5.4002e-41
88	0x000090ed	5.199e-41
89	0x800089d8	-4.9449e-41
90	0x80008a18	-4.9539e-41
91	0x80008d44	-5.0677e-41
92	0x80008cbc	-5.0486e-41
93	0x80008cef	-5.0557e-41
94	0x80008987	-4.9336e-41
95	0x80008a45	-4.9602e-41
96	0x800089da	-4.9452e-41
97	0x80008944	-4.9242e-41
98	0x80008c6c	-5.0374e-41
99	0x8000898d	-4.9344e-41
100	0x00008ec5	5.1216e-41
101	0x00008fdf	5.1611e-41
102	0x8000ae44	-6.2515e-41
103	0x80009455	-5.3212e-41
104	0x00008c92	5.0427e-41
105	0x800091cd	-5.2303e-41
106	0x0000a23d	5.82e-41
107	0x8000ad1e	-6.2103e-41
108	0x8000962a	-5.3869e-41
109	0x80009771	-5.4327e-41
110	0x800094ff	-5.345e-41
111	0x00008e73	5.1101e-41
112	0x80008d06	-5.059e-41
113	0x8000ad78	-6.2229e-41
114	0x80009040	-5.1747e-41
115	0x80008b30	-4.9931e-41
116	0x80008c99	-5.0437e-41
117	0x80009573	-5.3612e-41
118	0x80009380	-5.2913e-41
119	0x80008f82	-5.1481e-41
120	0x000089d7	4.9448e-41
121	0x80008c8f	-5.0423e-41
122	0x80008e55	-5.1059e-41
123	0x800095a4	-5.3681e-41
124	0x800094c2	-5.3364e-41
125	0x800089ab	-4.9386e-41
126	0x800089cf	-4.9436e-41
127	0x800089db	-4.9453e-41
128	0x800088ec	-4.9118e-41
129	0x800088f2	-4.9127e-41
130	0x800089f8	-4.9494e-41
131	0x800089d5	-4.9445e-41
132	0x80008983	-4.933e-41
133	0x80008942	-4.9239e-41
134	0x80008a06	-4.9513e-41
135	0x80008910	-4.9169e-41
136	0x80008a27	-4.956e-41
137	0x800089b0	-4.9393e-41
138	0x800089e1	-4.9462e-41
139	0x800088ba	-4.9048e-41
140	0x800088f2	-4.9127e-41
141	0x800089c2	-4.9418e-41
142	0x80008972	-4.9306e-41
143	0x80008983	-4.933e-41
144	0x800089d3	-4.9442e-41
145	0x80008a27	-4.956e-41
146	0x80008940	-4.9236e-41
147	0x800089e0	-4.946e-41
148	0x800089a4	-4.9376e-41
149	0x800088bd	-4.9052e-41
150	0x00510ba6	7.442854e-39
151	0x004ea8b1	7.223684e-39
152	0x005051c8	7.376177e-39
153	0x004f9d9a	7.311541e-39
154	0x004ff067	7.341244e-39
155	0x00505033	7.37561e-39
156	0x004eb45f	7.227874e-39
157	0x004f1157	7.261225e-39
158	0x004ffdcc	7.34605e-39
159	0x00506c0b	7.385598e-39
160	0x0050c8e9	7.418913e-39
161	0x004eace3	7.225189e-39
162	0x004d8d10	7.121937e-39
163	0x004e30b8	7.180646e-39
164	0x0050ca3a	7.419385e-39
165	0x005051ab	7.376137e-39
166	0x00503a32	7.367716e-39
167	0x004ef411	7.250723e-39
168	0x004ff284	7.342002e-39
169	0x00504200	7.370516e-39
170	0x005035db	7.36616e-39
171	0x004f7154	7.295659e-39
172	0x004ecc5b	7.236478e-39
173	0x004f4f45	7.283441e-39
174	0x00510e0b	7.443713e-39
175	0x00008912	4.9172e-41
176	0x000088ff	4.9145e-41
177	0x000088e1	4.9103e-41
178	0x00008a09	4.9518e-41
179	0x00008a10	4.9527e-41
180	0x00008a05	4.9512e-41
181	0x00008994	4.9354e-41
182	0x0000898b	4.9341e-41
183	0x000089cd	4.9434e-41
184	0x0000894d	4.9254e-41
185	0x000089b3	4.9397e-41
186	0x00008941	4.9237e-41
187	0x00008937	4.9223e-41
188	0x000089c2	4.9418e-41
189	0x00008931	4.9215e-41
190	0x000088f5	4.9131e-41
191	0x000089ec	4.9477e-41
192	0x00008945	4.9243e-41
193	0x00008983	4.933e-41
194	0x00008917	4.9179e-41
195	0x00008920	4.9191e-41
196	0x00008936	4.9222e-41
197	0x0000899b	4.9364e-41
198	0x00008953	4.9263e-41
199	0x000089bb	4.9408e-41
200	0x000089d2	4.944e-41
201	0x00008a61	4.9641e-41
202	0x00008a73	4.9666e-41
203	0x00008ab2	4.9755e-41
204	0x000088cc	4.9073e-41
205	0x00008a74	4.9668e-41
206	0x00008999	4.9361e-41
207	0x00008a85	4.9691e-41
208	0x0000890d	4.9165e-41
209	0x000089b4	4.9399e-41
210	0x00008985	4.9333e-41
211	0x00008aae	4.9749e-41
212	0x000089c9	4.9428e-41
213	0x0000894a	4.925e-41
214	0x000088bc	4.9051e-41
215	0x00008aae	4.9749e-41
216	0x00008a00	4.9505e-41
217	0x00008ab8	4.9763e-41
218	0x000089b8	4.9404e-41
219	0x000088c1	4.9058e-41
220	0x000089dd	4.9456e-41
221	0x00008a87	4.9694e-41
222	0x00008948	4.9247e-41
223	0x000088f6	4.9132e-41
224	0x00008a1e	4.9547e-41
225	0x80008ab1	-4.9753e-41
226	0x80008cff	-5.058e-41
227	0x80008b04	-4.987e-41
228	0x80008d46	-5.068e-41
229	0x80008ba9	-5.01e-41
230	0x800089cc	-4.9432e-41
231	0x80008d0d	-5.06e-41
232	0x80008ac9	-4.9787e-41
233	0x80008bb0	-5.011e-41
234	0x80008b50	-4.9976e-41
235	0x00008afe	4.9861e-41
236	0x80008d2e	-5.0646e-41
237	0x80008d5e	-5.0713e-41
238	0x80008975	-4.931e-41
239	0x80008a9c	-4.9724e-41
240	0x80008cfb	-5.0574e-41
241	0x80008929	-4.9204e-41
242	0x80008bb0	-5.011e-41
243	0x80008d29	-5.0639e-41
244	0x80008a6c	-4.9656e-41
245	0x80008baa	-5.0102e-41
246	0x80008a9a	-4.9721e-41
247	0x80008bd1	-5.0157e-41
248	0x80008c0e	-5.0242e-41
249	0x80008ccf	-5.0513e-41
250	0x84747cf8	-2.8739445e-36
251	0x800088c1	-4.9058e-41
252	0x29807f65	5.706441e-14
253	0x3a19ec2f	0.0005871681
254	0x203958c8	1.5699485e-19
255	0xa9b3476c	-7.9615866e-14

e_conv3.bias f4 [3]
0	0xad6159f6	-1.2809745e-11
1	0xa44eb059	-4.4818502e-17
2	0xb98b9696	-0.0002662434

e_conv4.weight f4 [3, 6, 7, 7]
0	0xa9469815	-4.4096742e-14
1	0x000088c3	4.9061e-41
2	0xa51e696f	-1.3740038e-16
3	0x800088d1	-4.908e-41
4	0x2bd2ef6f	1.4987854e-12
5	0xac4b7ccc	-2.8917311e-12
6	0x3823393d	3.8915536e-05
7	0xa907faa5	-3.019342e-14
8	0xadbf4458	-2.1744537e-11
9	0x800088ce	-4.9076e-41
10	0xa9a885ac	-7.483887e-14
11	0x000088bc	4.9051e-41
12	0xa8520f62	-1.1660677e-14
13	0x330f9ca7	3.3437257e-08
14	0xb63d7f13	-2.8237162e-06
15	0xad2420f8	-9.329641e-12
16	0x000094d7	5.3394e-41
17	0xb8e79268	-0.00011042209
18	0x80008911	-4.917e-41
19	0x80008909	-4.9159e-41
20	0x800088ed	-4.912e-41
21	0x37842fa8	1.5757818e-05
22	0x00008908	4.9158e-41
23	0xb5bb92cf	-1.3975313e-06
24	0x800088f7	-4.9134e-41
25	0xb402aea5	-1.2170729e-07
26	0x000088df	4.91e-41
27	0x272e52d1	2.4192246e-15
28	0x2be0ba16	1.5967807e-12
29	0xb1ddfde5	-6.460811e-09
30	0xa98d97b6	-6.2879755e-14
31	0xafa633df	-3.023208e-10
32	0x34163581	1.3989303e-07
33	0xa1cb7d7b	-1.3789029e-18
34	0x0000892b	4.9207e-41
35	0x3a8ef874	0.0010907785
36	0x2d3e68aa	1.082349e-11
37	0x31d4b759	6.1908563e-09
38	0xb855b4e4	-5.0951625e-05
39	0x385c0191	5.2453546e-05
40	0xaa02c694	-1.1615215e-13
41	0xaa0edeba	-1.2689407e-13
42	0xb29396c4	-1.7181613e-08
43	0xad8741fe	-1.537703e-11
44	0x3055e91f	7.7820234e-10
45	0xb32843f3	-3.9177348e-08
46	0x0000a326	5.8527e-41
47	0xa6822151	-9.029593e-16
48	0xa9aec223	-7.7608296e-14
49	0x800088fa	-4.9138e-41
50	0x0000ab53	6.146e-41
51	0x0000a491	5.9035e-41
52	0x8000a9b0	-6.0872e-41
53	0x00009db5	5.6575e-41
54	0x00009323	5.2783e-41
55	0x0000890e	4.9166e-41
56	0x0000a33d	5.8559e-41
57	0x800088fc	-4.9141e-41
58	0x80008dc4	-5.0856e-41
59	0x8000ae1a	-6.2456e-41
60	0x00008902	4.9149e-41
61	0x000088d6	4.9087e-41
62	0x0000a841	6.0358e-41
63	0x0000890f	4.9167e-41
64	0x8000a659	-5.9674e-41
65	0x80009b54	-5.5721e-41
66	0x800088e0	-4.9101e-41
67	0x80008926	-4.92e-41
68	0x800088d3	-4.9083e-41
69	0x8000a131	-5.7825e-41
70	0x800088d9	-4.9092e-41
71	0x00008906	4.9155e-41
72	0x80008906	-4.9155e-41
73	0x8000a459	-5.8957e-41
74	0x000088e3	4.9106e-41
75	0x8000ae66	-6.2562e-41
76	0x80008910	-4.9169e-41
77	0x800088dc	-4.9096e-41
78	0x0000ad1f	6.2104e-41
79	0x000088dc	4.9096e-41
80	0x00008919	4.9181e-41
81	0x00008ed3	5.1236e-41
82	0x000099ab	5.5126e-41
83	0x800088c1	-4.9058e-41
84	0x8000add9	-6.2365e-41
85	0x800088f5	-4.9131e-41
86	0x8000892f	-4.9212e-41
87	0x000088b9	4.9047e-41
88	0x0000adf6	6.2405e-41
89	0x8000a9e2	-6.0942e-41
90	0x00009a4b	5.535e-41
91	0x000088c5	4.9064e-41
92	0x000088fa	4.9138e-41
93	0x00008909	4.9159e-41
94	0x00008912	4.9172e-41
95	0x80009921	-5.4932e-41
96	0x000088c6	4.9065e-41
97	0x80008904	-4.9152e-41
98	0x2d0501f1	7.560606e-12
99	0xb85e3b06	-5.2983894e-05
100	0x800088e2	-4.9104e-41
101	0x381146ef	3.4636756e-05
102	0xb5795e86	-9.289728e-07
103	0x20924657	2.477991e-19
104	0x000088d7	4.9089e-41
105	0x000088de	4.9099e-41
106	0x800088f1	-4.9125e-41
107	0x800095bd	-5.3716e-41
108	0xaa6ed4cb	-2.1212474e-13
109	0x36fed417	7.5944804e-06
110	0x2fc16a42	3.5181996e-10
111	0xb2518452	-1.2195487e-08
112	0x80008910	-4.9169e-41
113	0x000088d0	4.9079e-41
114	0xb86216d4	-5.390386e-05
115	0xb8183679	-3.6290356e-05
116	0xb76bcc5d	-1.4054674e-05
117	0x391af9ad	0.00014779596
118	0x271b8f49	2.1588246e-15
119	0x26970e71	1.0481644e-15
120	0x2eb221ac	8.100484e-11
121	0x28137adb	8.186779e-15
122	0xaaedcbda	-4.2241108e-13
123	0x30d19162	1.5248072e-09
124	0x8ea8fdd2	-4.1659618e-30
125	0x20ec31e6	4.0012975e-19
126	0xa9a669ed	-7.390256e-14
127	0x8000ad82	-6.2243e-41
128	0xa94f0f49	-4.597649e-14
129	0xb3fcb29b	-1.17671526e-07
130	0x2b3bf454	6.677482e-13
131	0xabc03fc1	-1.3660116e-12
132	0xa93352f7	-3.9817945e-14
133	0x800088dd	-4.9097e-41
134	0xab59ddc7	-7.7401665e-13
135	0x192d4552	8.9578895e-24
136	0x800089e1	-4.9462e-41
137	0x0000aaa5	6.1216e-41
138	0x2aac0909	3.0559607e-13
139	0x2f6b4bab	2.1400008e-10
140	0x9ef84406	-2.6286155e-20
141	0xab67a081	-8.229043e-13
142	0x1e13434f	7.796034e-21
143	0x9d91a163	-3.854805e-21
144	0x2eeec8b9	1.08586425e-10
145	0x800088c8	-4.9068e-41
146	0x38592318	5.1769515e-05
147	0x80008e07	-5.095e-41
148	0x8000890d	-4.9165e-41
149	0x80008d45	-5.0678e-41
150	0x80008b4c	-4.997e-41
151	0x800089ad	-4.9389e-41
152	0x80008b8e	-5.0063e-41
153	0x80008c97	-5.0434e-41
154	0x80008d8b	-5.0776e-41
155	0x80008cfc	-5.0576e-41
156	0x800089f6	-4.9491e-41
157	0x8000897b	-4.9319e-41
158	0x80008a3f	-4.9593e-41
159	0x80008b95	-5.0073e-41
160	0x80008ae6	-4.9827e-41
161	0x80008a73	-4.9666e-41
162	0x80008911	-4.917e-41
163	0x800089ec	-4.9477e-41
164	0x80008a37	-4.9582e-41
165	0x80008b6e	-5.0018e-41
166	0x800088ee	-4.9121e-41
167	0x80008e1a	-5.0976e-41
168	0x80008a55	-4.9624e-41
169	0x80008b5c	-4.9993e-41
170	0x80008daa	-5.082e-41
171	0x80008a71	-4.9663e-41
172	0x80008e94	-5.1147e-41
173	0x80008e02	-5.0943e-41
174	0x80008ec3	-5.1213e-41
175	0x80008a13	-4.9532e-41
176	0x80008dd0	-5.0873e-41
177	0x80008987	-4.9336e-41
178	0x80008c1f	-5.0266e-41
179	0x800088fd	-4.9142e-41
180	0x80008b82	-5.0046e-41
181	0x80008913	-4.9173e-41
182	0x80008d9d	-5.0801e-41
183	0x80008df0	-5.0918e-41
184	0x80008e57	-5.1062e-41
185	0x80008cf8	-5.057e-41
186	0x80008b84	-5.0049e-41
187	0x80008c5e	-5.0354e-41
188	0x80008d9d	-5.0801e-41
189	0x80008d85	-5.0768e-41
190	0x80008bce	-5.0152e-41
191	0x80008b81	-5.0045e-41
192	0x80008968	-4.9292e-41
193	0x80008c3b	-5.0305e-41
194	0x80008e2c	-5.1002e-41
195	0x80008bd4	-5.0161e-41
196	0x00009174	5.2179e-41
197	0x00008ea6	5.1173e-41
198	0x00008e62	5.1077e-41
199	0x000089c5	4.9422e-41
200	0x00008aff	4.9862e-41
201	0x0000895d	4.9277e-41
202	0x80009651	-5.3923e-41
203	0x0000952a	5.351e-41
204	0x00008cf4	5.0564e-41
205	0x00008e79	5.111e-41
206	0x00009311	5.2757e-41
207	0x000088f6	4.9132e-41
208	0x00008f8b	5.1494e-41
209	0x000090fb	5.2009e-41
210	0x0000964c	5.3916e-41
211	0x00008a32	4.9575e-41
212	0x00008c28	5.0279e-41
213	0x000093b0	5.298e-41
214	0x00008ad0	4.9797e-41
215	0x00008f4b	5.1404e-41
216	0x000089ee	4.948e-41
217	0x00008d7f	5.0759e-41
218	0x00009302	5.2736e-41
219	0x000089ca	4.943e-41
220	0x0000958f	5.3652e-41
221	0x0000913a	5.2097e-41
222	0x00009443	5.3186e-41
223	0x000093d2	5.3028e-41
224	0x8000aa3b	-6.1067e-41
225	0x00008f31	5.1367e-41
226	0x0000944e	5.3202e-41
227	0x000090d2	5.1952e-41
228	0x00009406	5.3101e-41
229	0x00008cb1	5.047e-41
230	0x00008e4c	5.1047e-41
231	0x80008fbf	-5.1566e-41
232	0x80009579	-5.362e-41
233	0x00008b1e	4.9906e-41
234	0x00009571	5.361e-41
235	0x00008915	4.9176e-41
236	0x00008dd3	5.0877e-41
237	0x00008ffe	5.1655e-41
238	0x80009260	-5.251e-41
239	0x8000891f	-4.919e-41
240	0x800090ea	-5.1985e-41
241	0x80009090	-5.1859e-41
242	0x00008dd1	5.0874e-41
243	0x8000ac5f	-6.1835e-41
244	0x000092b0	5.2622e-41
245	0x000088bd	4.9052e-41
246	0x000093d1	5.3027e-41
247	0x80015699	-1.22901e-40
248	0x80008908	-4.9158e-41
249	0x800088f6	-4.9132e-41
250	0x800088dc	-4.9096e-41
251	0x0000a463	5.8971e-41
252	0x8000a86a	-6.0416e-41
253	0x8001482a	-1.17723e-40
254	0x000077f4	4.3031e-41
255	0x800088cf	-4.9078e-41

e_conv4.bias f4 [3]
0	0xab850ecc	-9.454325e-13
1	0xb6aa794f	-5.080517e-06
2	0xa166fe71	-7.826378e-19

e_conv5.weight f4 [3, 12, 3, 3]
0	0x3e1e5827	0.15463315
1	0x3e3bc042	0.1833506
2	0x3e1e0c21	0.15434314
3	0x3e276ca3	0.16350035
4	0x3e4b9e92	0.19884709
5	0x3e27eff3	0.16400127
6	0x3e0b79d3	0.13620691
7	0x3e2a908a	0.166567
8	0x3e0a49e5	0.13504751
9	0xbd6c34b8	-0.057667464
10	0xbc1f713d	-0.009731588
11	0xbd747447	-0.059681203
12	0xbd1502e8	-0.036379725
13	0x3c86c64c	0.016451977
14	0xbd23db9e	-0.040004365
15	0xbd909a10	-0.07060635
16	0xbcb831e0	-0.02248472
17	0xbd98793b	-0.07444998
18	0x80008ad0	-4.9797e-41
19	0x800089e6	-4.9469e-41
20	0x80008946	-4.9244e-41
21	0x8000897f	-4.9324e-41
22	0x80008add	-4.9815e-41
23	0x80008ad1	-4.9798e-41
24	0x80008ab9	-4.9764e-41
25	0x800089d6	-4.9446e-41
26	0x8000890a	-4.916e-41
27	0x80001a8f	-9.527e-42
28	0x800069ae	-3.7911e-41
29	0x80001c27	-1.0099e-41
30	0x80006670	-3.6748e-41
31	0x800060be	-3.4705e-41
32	0x8000168b	-8.087e-42
33	0x800063ff	-3.5872e-41
34	0x80006840	-3.7398e-41
35	0x80006de4	-3.9421e-41
36	0x000088e9	4.9114e-41
37	0x000089fe	4.9502e-41
38	0x000088ff	4.9145e-41
39	0x000089e8	4.9471e-41
40	0x00008a2e	4.957e-41
41	0x0000892b	4.9207e-41
42	0x000088de	4.9099e-41
43	0x00008a10	4.9527e-41
44	0x00008a27	4.956e-41
45	0x800089ef	-4.9481e-41
46	0x800089e7	-4.947e-41
47	0x800089ad	-4.9389e-41
48	0x8000891a	-4.9183e-41
49	0x80008a15	-4.9534e-41
50	0x80008944	-4.9242e-41
51	0x80008928	-4.9202e-41
52	0x80008a30	-4.9572e-41
53	0x800088bb	-4.905e-41
54	0x9019c8db	-3.0328663e-29
55	0x90197ac2	-3.02685e-29
56	0x901cce10	-3.092432e-29
57	0x90178c07	-2.9887372e-29
58	0x90174a55	-2.9836762e-29
59	0x901a8622	-3.0474477e-29
60	0x9018b00f	-3.0112345e-29
61	0x901872b2	-3.0065072e-29
62	0x901b9a62	-3.0687292e-29
63	0x80008956	-4.9267e-41
64	0x8000895f	-4.928e-41
65	0x80008a39	-4.9585e-41
66	0x8000898b	-4.9341e-41
67	0x80008912	-4.9172e-41
68	0x800089df	-4.9459e-41
69	0x80008982	-4.9329e-41
70	0x80008910	-4.9169e-41
71	0x80008962	-4.9284e-41
72	0xb0c00799	-1.3971998e-09
73	0xb0bf64f2	-1.3925769e-09
74	0xb0c081ed	-1.4006766e-09
75	0xb0bed9da	-1.3886237e-09
76	0xb0be3f8c	-1.3842381e-09
77	0xb0bf5d9b	-1.3923683e-09
78	0xb0bed5d8	-1.3885098e-09
79	0xb0be3d9c	-1.384183e-09
80	0xb0bf61db	-1.3924891e-09
81	0x00008a2f	4.9571e-41
82	0x00008c73	5.0384e-41
83	0x0000905d	5.1788e-41
84	0x000089ee	4.948e-41
85	0x0000893f	4.9235e-41
86	0x00008e93	5.1146e-41
87	0x00008c1a	5.0259e-41
88	0x00008ba2	5.0091e-41
89	0x00008d9d	5.0801e-41
90	0xb1e257b5	-6.587437e-09
91	0xb1e2d403	-6.6015686e-09
92	0xb1e2ef76	-6.6046892e-09
93	0xb1e2646a	-6.5888814e-09
94	0xb1e2ec5b	-6.604336e-09
95	0xb1e311a2	-6.608574e-09
96	0xb1e2bf52	-6.5992163e-09
97	0xb1e34fdf	-6.61565e-09
98	0xb1e381ac	-6.6213115e-09
99	0x153d5d26	3.8241727e-26
100	0x94a10c0c	-1.6261597e-26
101	0x153239dc	3.5992457e-26
102	0x1529ab9b	3.426465e-26
103	0x159032dd	5.8241385e-26
104	0x94f7fa56	-2.5039366e-26
105	0x1432d574	9.0288e-27
106	0x148304c5	1.3229501e-26
107	0x952c41d1	-3.4787043e-26
108	0x3e1fc897	0.15603863
109	0x3e2e39c6	0.17014226
110	0x3e2095cf	0.15682147
111	0x3e1b7c55	0.15184148
112	0x3e32ebb9	0.17472734
113	0x3e214f77	0.1575297
114	0x3e0a0f83	0.1348248
115	0x3e1d8de4	0.15386158
116	0x3e1584d9	0.14601459
117	0xbc15412a	-0.009109775
118	0x3d41a6bd	0.047278155
119	0xbc1cce11	-0.009570614
120	0x3c54fd7e	0.01299989
121	0x3d9ed0f4	0.077546984
122	0x3c42ec20	0.011897117
123	0xbcb495a3	-0.022044009
124	0x3d0fa413	0.035068583
125	0xbcbb4bef	-0.022863356
126	0x800088f0	-4.9124e-41
127	0x80008a40	-4.9595e-41
128	0x8000894c	-4.9253e-41
129	0x80008959	-4.9271e-41
130	0x800089c8	-4.9427e-41
131	0x80008a43	-4.9599e-41
132	0x800088bc	-4.9051e-41
133	0x80008939	-4.9226e-41
134	0x80008968	-4.9292e-41
135	0x01a93016	6.2149795e-38
136	0x01929088	5.383932e-38
137	0x01a75da9	6.1480507e-38
138	0x0194068f	5.4376025e-38
139	0x017c0b17	4.6293047e-38
140	0x0193a663	5.4238025e-38
141	0x01984d07	5.594651e-38
142	0x01833c55	4.820837e-38
143	0x01995655	5.6327204e-38
144	0x800088c0	-4.9057e-41
145	0x800088c9	-4.9069e-41
146	0x80008a43	-4.9599e-41
147	0x800089a0	-4.937e-41
148	0x8000896e	-4.93e-41
149	0x8000894d	-4.9254e-41
150	0x80008969	-4.9293e-41
151	0x8000897f	-4.9324e-41
152	0x800088e9	-4.9114e-41
153	0x00008978	4.9314e-41
154	0x000088cc	4.9073e-41
155	0x80008983	-4.933e-41
156	0x000088ba	4.9048e-41
157	0x00008b50	4.9976e-41
158	0x000089c5	4.9422e-41
159	0x8000896b	-4.9296e-41
160	0x00008a09	4.9518e-41
161	0x80008a26	-4.9558e-41
162	0x920f2e9d	-4.51803e-28
163	0x920e6aaa	-4.4938773e-28
164	0x92100f67	-4.5457373e-28
165	0x920d8ee5	-4.4667886e-28
166	0x920cbb88	-4.440736e-28
167	0x920e50cc	-4.490689e-28
168	0x920e341d	-4.4871534e-28
169	0x920d6416	-4.461512e-28
170	0x920ee088	-4.5084056e-28
171	0x00008969	4.9293e-41
172	0x000089fe	4.9502e-41
173	0x0000896e	4.93e-41
174	0x000088f9	4.9137e-41
175	0x00008929	4.9204e-41
176	0x00008984	4.9331e-41
177	0x00008a23	4.9554e-41
178	0x00008957	4.9268e-41
179	0x000088c6	4.9065e-41
180	0xb25ca58f	-1.2843329e-08
181	0xb25cbbb6	-1.2848366e-08
182	0xb25cb93f	-1.28478055e-08
183	0xb25c38bd	-1.2818586e-08
184	0xb25c4124	-1.2820497e-08
185	0xb25c2117	-1.2813209e-08
186	0xb25bc59a	-1.2792407e-08
187	0xb25bb599	-1.2788768e-08
188	0xb25b8121	-1.2776838e-08
189	0x00008a1c	4.9544e-41
190	0x00008fd3	5.1594e-41
191	0x00008903	4.915e-41
192	0x00008c0e	5.0242e-41
193	0x00008968	4.9292e-41
194	0x00008af7	4.9851e-41
195	0x00008dec	5.0912e-41
196	0x00008de1	5.0897e-41
197	0x00008edf	5.1252e-41
198	0xb1b3d91a	-5.2342672e-09
199	0xb1b475c8	-5.2520797e-09
200	0xb1b3e024	-5.2350675e-09
201	0xb1b36e1b	-5.222103e-09
202	0xb1b41279	-5.2407896e-09
203	0xb1b37e2d	-5.22393e-09
204	0xb1b2c0e7	-5.2024123e-09
205	0xb1b3665b	-5.221222e-09
206	0xb1b2d729	-5.2049427e-09
207	0x918d5f2c	-2.2304532e-28
208	0x8ffb9bd5	-2.4810535e-29
209	0x1168fe09	1.8379854e-28
210	0x1196373a	2.3699863e-28
211	0x915fab4b	-1.7644382e-28
212	0x91bd641d	-2.9880642e-28
213	0x921c805a	-4.9383126e-28
214	0x9226553a	-5.2485414e-28
215	0x9233e0e0	-5.675962e-28
216	0x3e1abc4b	0.1511089
217	0x3e3c9ab1	0.18418385
218	0x3e26a9bc	0.16275686
219	0x3e17f606	0.14839944
220	0x3e41dc13	0.18931608
221	0x3e26c926	0.1628767
222	0x3dfd61d7	0.12372177
223	0x3e200818	0.15628088
224	0x3e0e8a5d	0.13919969
225	0x3d12e728	0.03586498
226	0x3dd76646	0.10517554
227	0x3d38de5c	0.045133933
228	0x3d5dfe3b	0.05419753
229	0x3e0604b7	0.13087736
230	0x3d80f6c8	0.0629707
231	0x3c42e7ad	0.011896056
232	0x3da42cb4	0.08016339
233	0x3ca38263	0.019959634
234	0x80008a01	-4.9506e-41
235	0x80008943	-4.924e-41
236	0x80008947	-4.9246e-41
237	0x80008acc	-4.9791e-41
238	0x800089d6	-4.9446e-41
239	0x800089a1	-4.9372e-41
240	0x80008a16	-4.9536e-41
241	0x80008a14	-4.9533e-41
242	0x8000891d	-4.9187e-41
243	0x8324aafb	-4.8391544e-37
244	0x8315f1b0	-4.406461e-37
245	0x8320a794	-4.7212144e-37
246	0x8319d96b	-4.5212243e-37
247	0x830ab806	-4.0765804e-37
248	0x831662ac	-4.419431e-37
249	0x831d362e	-4.620035e-37
250	0x830ef873	-4.2015255e-37
251	0x831ab12d	-4.545992e-37
252	0x80008954	-4.9264e-41
253	0x80009014	-5.1685e-41
254	0x8000921a	-5.2411e-41
255	0x80009f40	-5.7128e-41

e_conv5.bias f4 [3]
0	0x3f59035f	0.8477077
1	0x3f5e9e5b	0.8696038
2	0x3f60026d	0.875037
